self/sm1.onnx (onnx, 338917 bytes, 6 tensors)

StatefulPartitionedCall/sequential/dense_2/MatMul/ReadVariableOp:0 f4 [50, 10]
0.22251406 -0.18124159 -0.45676354 0.12784208 -0.22846764 -0.051403787 -0.3357626 -0.26868838
0.15308376 -0.2757789 0.28776583 -0.23347664 -0.28807312 0.027883826 -0.2352613 -0.023965744
0.27235895 -0.56529504 0.051755 0.17636001 -0.19646825 -0.22357972 -0.013349355 -0.12012462
-0.20833312 0.0690297 0.31793246 0.34171006 0.090440676 -0.14652964 0.38067463 0.3599094
-0.14220865 0.31453618 0.5015318 -0.04859434 0.3749023 -0.49617803 -0.34833306 -0.37336963
-0.5042307 0.06625818 0.28318492 0.11100958 -0.570795 -0.39623302 -0.19120878 -0.13708732
0.21263064 -0.051541146 -0.1197848 0.042478986 0.5277814 -0.3487011 0.06328798 0.015536478
-0.0466205 -0.20833787 -0.11244351 -0.4339731 -0.8530743 -0.10269973 -5.410982e-05 0.3958522
-0.5063355 0.3437375 -0.4484006 -0.2676987 -0.2826035 -0.1929438 -0.51561475 0.33600923
-0.045995284 0.1868066 -0.3110464 0.032540847 0.09593404 0.2871485 0.29338557 0.33361498
-0.15701473 0.14714514 -0.12134169 -0.12538439 0.2645479 -0.25712347 -0.49335057 -0.5616349
0.22141889 0.25769925 0.079441644 0.36240232 -0.27885583 0.058407508 0.08370403 -0.11957279
-0.084375545 -0.32450485 -0.053121883 -0.06056053 0.17126276 -0.01080669 0.06387326 -0.23915109
0.0132803805 -0.324789 0.18697354 -0.39047682 0.40584132 0.217848 0.19287477 -0.297173
0.1655813 0.21385644 -0.5310361 0.30932078 0.45835248 -0.062789716 -0.00072868983 -0.2104289
-0.46157214 0.4288875 0.030791085 -0.61635226 0.47282815 -0.061058916 -0.14763157 -0.09056928
-0.09313821 0.3260664 -0.070735715 0.5481374 -0.3643595 -0.5832125 -0.28618613 0.5899631
-0.34722146 0.06903344 -0.24087656 0.30206648 0.2990623 -0.3037281 0.062656105 0.08621134
-0.54860264 -0.3174244 -0.11023311 0.060364548 -0.34726155 0.054759145 -0.23096187 -0.1130468
0.09699891 -0.26597354 0.012486349 -0.10058421 -0.09948022 0.04295771 -0.017080963 0.01997022
0.20149183 0.32619455 -0.1299277 -0.25380573 0.17660926 -0.25987065 -0.50485563 -0.490198
0.058430366 0.18260543 0.1850786 -0.1123984 -0.3618445 0.26733074 0.14813721 -0.4474498
-0.5895925 0.16550197 0.15136477 0.25466317 0.0040906025 -0.22290859 0.16671781 0.040895242
-0.10302714 -0.1399821 0.17008069 -0.40098864 0.22865567 -0.47071838 -0.020261629 -0.61990595
0.12336107 -0.098887786 0.084373176 -0.3697876 -0.10500804 0.10259152 0.006976488 -0.032556765
-0.04116358 -0.036922306 -0.50276494 -0.814925 0.24605073 -0.31442946 -0.42987058 0.2577439
-0.21142782 -0.016544092 -0.3056177 0.3039806 -0.22654784 -0.10050659 -0.060162265 0.35111848
0.07185334 0.19918211 -0.40731883 -0.050588418 0.32102203 0.532298 -0.2033178 0.3242699
-0.41974384 0.43233386 0.116163686 -0.22250691 -0.64017904 -0.021288257 -0.04468366 -0.13757923
0.12841022 0.30082318 0.26230943 -0.22889055 -0.31561643 -0.04128524 -0.40065873 0.38493305
0.4349208 -0.27898955 0.34345943 0.17323086 -0.23891059 0.14480823 0.13351247 0.050213777
0.16902108 0.075293034 -0.75351375 -0.06349051 -0.58540446 0.060497835 0.17420465 0.18524392
00000000: bada 633e 6597 39be e9dc e9be 09e9 023e
00000010: 6cf3 69be c78c 52bd 13e9 abbe 8691 89be
00000020: fdc1 1c3e e432 8dbe 0b56 933e 8014 6fbe
00000030: 527e 93be 9f6c e43c 57e8 70be cf53 c4bc
00000040: a272 8b3e 2db7 10bf 0dfd 533d b897 343e
00000050: f92e 49be 15f2 64be 41b7 5abc e603 f6bd
00000060: 4755 55be 715f 8d3d 0bc8 a23e 9ff4 ae3e
00000070: f638 b93d de0b 16be c9e7 c23e 0b46 b83e
00000080: 259f 11be e30a a13e 6364 003f dc0a 47bd
00000090: 32f3 bf3e 0c0b febe b658 b2be 4e2a bfbe
000000a0: 4315 01bf 5eb2 873d 9dfd 903e fe58 e33d
000000b0: 9f1f 12bf 0edf cabe 3ccc 43be 9e60 0cbe
000000c0: d9bb 593e cf1c 53bd bc51 f5bd 72fe 2d3d
000000d0: af1c 073f f388 b2be 219d 813d b68c 7e3c
000000e0: 23f5 3ebd 8656 55be c848 e6bd b931 debe
000000f0: 1463 5abf 3c54 d2bd faf3 62b8 24ad ca3e
00000100: 349f 01bf 5dfe af3e c394 e5be ce0f 89be
00000110: 68b1 90be 0f93 45be 54ff 03bf 6709 ac3e
00000120: 8d65 3cbd 3b4a 3f3e 7941 9fbe 8d49 053d
00000130: 1179 c43d 2105 933e a236 963e 95cf aa3e
00000140: 78c8 20be 37ad 163e fe81 f8bd c464 00be
00000150: d372 873e b0a5 83be 7298 fcbe 4ec7 0fbf
00000160: a2bb 623e 28f1 833e 4db2 a23d cc8c b93e
00000170: 31c6 8ebe b63c 6f3d 056d ab3d 94e2 f4bd
00000180: 16cd acbd 8025 a6be 5596 59bd 510e 78bd
00000190: 815f 2f3e 8b0e 31bc fccf 823d 06e4 74be
000001a0: f495 593c be4a a6be fe75 3f3e 94ec c7be
000001b0: 6fca cf3e 8c13 5f3e f780 453e 0f27 98be
000001c0: 258e 293e 2ffd 5a3e fbf1 07bf 4b5f 9e3e
000001d0: 2dad ea3e e597 80bd 8c05 3fba ac7a 57be
000001e0: 2f53 ecbe 2497 db3e 963d fc3c 43c9 1dbf
000001f0: 8816 f23e ea18 7abd bb2c 17be 637c b9bd
00000200: 3fbf bebd 2df2 a63e e3dd 90bd bc52 0c3f
00000210: 548d babe 6a4d 15bf fd86 92be d207 173f
00000220: 03c7 b1be 6761 8d3d 58a8 76be 75a8 9a3e
00000230: b21e 993e 4082 9bbe d851 803d 928f b03d
00000240: 3971 0cbf 7385 a2be e6c1 e1bd d140 773d
00000250: 44cc b1be 204b 603d 4581 6cbe 1585 e7bd
00000260: 5da7 c63d af2d 88be 8b93 4c3c 18ff cdbd
00000270: 49bc cbbd 6cf4 2f3d 60ed 8bbc 9698 a33c
00000280: e053 4e3e f902 a73e c40b 05be d3f2 81be
00000290: 0fd9 343e c40d 85be 383e 01bf 3bfb fabe
000002a0: ae54 6f3d ebfc 3a3e 3f85 3d3e 2231 e6bd
000002b0: af43 b9be 93df 883e 48b1 173e 2418 e5be
000002c0: 89ef 16bf 5979 293e 5eff 1a3e 3663 823e
000002d0: 760a 863b 2642 64be 13b8 2a3e c581 273d
000002e0: e5ff d2bd 7857 0fbe a229 2e3e 624e cdbe
000002f0: b624 6a3e 0002 f1be b7fb a5bc 28b2 1ebf
00000300: bba4 fc3d ae85 cabd d8cb ac3d cd54 bdbe
00000310: 750e d7bd 811b d23d 069b e43b 3e5a 05bd
00000320: 249b 28bd d83b 17bd 34b5 00bf ed9e 50bf
00000330: b9f4 7b3e e6fc a0be ff17 dcbe 02f7 833e
00000340: 8980 58be 7a87 87bc ec79 9cbe 58a3 9b3e
00000350: 28fc 67be 66d6 cdbd b56c 76bd cdc5 b33e
00000360: d827 933d 65f6 4b3e 188c d0be cd35 4fbd
00000370: 005d a43e af44 083f 8b32 50be b406 a63e
00000380: aae8 d6be dd5a dd3e 3ae7 ed3d dad8 63be
00000390: c6e2 23bf b664 aebc 3706 37bd 92e1 0cbe
000003a0: f87d 033e 7f05 9a3e 6c4d 863e 4962 6abe
000003b0: 7a98 a1be b61a 29bd 2423 cdbe f215 c53e
000003c0: f0ad de3e b8d7 8ebe ead9 af3e 6e63 313e
000003d0: faa4 74be 9c48 143e 7eb7 083e f6ac 4d3d
000003e0: dd13 2d3e 3c33 9a3d 47e6 40bf 5007 82bd
000003f0: 11dd 15bf 94cc 773d b462 323e 95b0 3d3e

StatefulPartitionedCall/sequential/dense_2/BiasAdd/ReadVariableOp:0 f4 [10]
-0.06168116 -0.05992288 0.018077485 -0.12529358 -0.008021318 0.09759624 -0.019155752 -0.13706118
0.22680749 -0.00295483
00000000: 62a5 7cbd b271 75bd 3c17 943c f64c 00be
00000010: d96b 03bc 8ae0 c73d 86ec 9cbc c459 0cbe
00000020: 3940 683e d2a5 41bb

StatefulPartitionedCall/sequential/dense_1/MatMul/ReadVariableOp:0 f4 [100, 50]
-0.18270437 0.22529286 -0.099285536 0.31305143 -0.21467213 0.14096563 0.13503897 -0.18100461
0.11084642 0.06745223 0.1682919 -0.06827856 0.117709994 0.20170574 0.093865275 0.025747184
0.03753086 0.11403187 -0.4457606 0.089518346 0.29201448 -0.305774 -0.17065933 0.076522134
0.2726101 -0.032571997 0.050653357 0.2457335 -0.2944146 -0.19089046 0.04921619 0.21415158
-0.13886486 0.17915739 0.58968884 0.24258766 -0.3590057 -0.112579465 -0.21423106 -0.3069824
-0.10606692 0.18062182 -0.1614139 -0.2277721 -0.06095719 -0.22731692 0.123751245 0.305864
-0.29423085 0.1616304 0.14587963 -0.01747934 0.23441502 -0.07688236 -0.15899234 -0.35658652
0.092052214 0.07860955 -0.16308258 0.016823428 -0.17340694 0.40317068 -0.30483422 -0.21620516
0.20284508 0.06519676 0.42145523 -0.11776166 0.23921208 0.11185156 -0.3600864 -0.015175544
0.15015249 0.099639624 0.45382676 -0.13444117 -0.03334568 0.10921376 0.14683734 -0.022664247
-0.36247098 -0.17952293 -0.020201223 0.19887252 -0.05902096 0.24172126 -0.009081371 -0.3760867
0.28819123 0.23710339 0.37528178 -0.17584632 0.04892875 -0.035612173 -0.076805316 0.1983023
-0.2613498 0.06432964 0.07284554 -0.16240673 -0.6330852 0.32416835 0.2087675 0.046569332
0.09470053 -0.080236025 -0.06104975 0.17026184 0.16612095 0.046109587 -0.11993466 -0.023379803
0.10393613 0.3473703 0.30047452 0.053345315 0.09637427 -0.2986997 -0.18058655 0.20932728
0.22069068 0.1678526 -0.075448744 0.22948508 0.21011308 0.02685253 0.39658275 -0.3022189
-0.04681732 -0.23717055 -0.39440304 0.24280396 -0.19433266 0.14178713 -0.19656447 0.3345417
-0.30658472 -0.038794946 0.048724197 -0.12706889 -0.07705045 -0.00065094535 0.028782248 -0.007004169
-0.31466362 0.010602583 0.13842697 0.21660623 -0.30811712 0.4350069 -0.05242352 -0.0064914827
-0.04106149 -0.18608692 0.30323136 0.3191609 0.11909376 0.22072701 -0.06787685 -0.07393048
0.1443197 -0.032803953 0.275202 -0.42526138 0.068997495 0.12772985 -0.14750497 0.13566792
0.08814015 -0.13991272 -0.09262888 -0.14612538 0.22678433 -0.11003891 0.03528342 -0.05518832
0.15187731 -0.14664873 -0.22417352 0.021977585 0.024377758 -0.0656892 -0.09866378 0.14047559
-0.15594947 -0.17743075 0.24267064 0.084966175 0.085224494 -0.09341957 0.3021827 -0.20500137
0.18291543 -0.36451674 -0.14905557 0.13247018 -0.30973825 -0.09219544 -0.056656133 0.31949836
-0.33605975 -0.29475832 0.2561687 0.16949177 0.09194543 0.6019208 -0.031553708 -0.378289
-0.37894565 -0.0408567 -0.44656542 0.25745812 -0.037944954 -0.42082712 -0.10869558 0.011695424
-0.039241366 -0.35020846 0.35612524 0.31785566 0.030756779 0.097242884 -0.12889548 0.07796945
0.050546203 -0.16840374 -0.1661881 0.13863051 -0.026106792 -0.19215006 0.15550368 0.20826942
0.15504144 -0.37853593 0.14348124 0.2085292 -0.13557298 -0.049507145 -0.2034378 -0.22493328
-0.5006484 -0.50675637 0.17885457 -0.48528078 0.42026097 -0.03502636 -0.06517266 0.56862706
-0.017878974 0.2704111 -0.042157676 -0.072822325 -0.18867825 0.016315933 0.24147902 -0.27251032
00000000: db16 3bbe 2cb3 663e 3756 cbbd 4748 a03e
00000010: 03d3 5bbe 4b59 103e a847 0a3e 4659 39be
00000020: 7303 e33d 6524 8a3d b654 2c3e a1d5 8bbd
00000030: f011 f13d f38b 4e3e 703c c03d c2eb d23c
00000040: f6b9 193d 8b89 e93d bc3a e4be 6555 b73d
00000050: ec82 953e 698e 9cbe 52c1 2ebe a3b7 9c3d
00000060: 8d93 8b3e 376a 05bd e579 4f3d 90a1 7b3e
00000070: 83bd 96be ca78 43be ea96 493d 8d4a 5b3e
00000080: 9732 0ebe 0975 373e d9f5 163f e668 783e
00000090: 98cf b7be 1090 e6bd 635f 5bbe cc2c 9dbe
000000a0: 9d39 d9bd edf4 383e af49 25be 173d 69be
000000b0: 3fae 79bd c4c5 68be 4b71 fd3d 359a 9c3e
000000c0: 6da5 96be 7182 253e 7861 153e d530 8fbc
000000d0: 7e0a 703e 8074 9dbd e3ce 22be 8292 b6be
000000e0: df85 bc3d 0bfe a03d 1fff 26be 49d1 893c
000000f0: 9791 31be 636c ce3e 3b13 9cbe e364 5dbe
00000100: 9fb6 4f3e e185 853d fbc8 d73e 062d f1bd
00000110: 03f4 743e 6e12 e53d 3f5d b8be d8a2 78bc
00000120: 93c1 193e dc0f cc3d fb5b e83e f2aa 09be
00000130: 7b95 08bd 77ab df3d 875c 163e 5faa b9bc
00000140: cc95 b9be dcd4 37be 097d a5bc 3da5 4b3e
00000150: f6bf 71bd c785 773e 08ca 14bc 708e c0be
00000160: cd8d 933e 3bcb 723e ef24 c03e 0f11 34be
00000170: 8369 483d 12de 11bd 1b4c 9dbd c20f 4b3e
00000180: a4cf 85be 42bf 833d 0b30 953d f34d 26be
00000190: df11 22bf 65f9 a53e 26c7 553e 7cbf 3e3d
000001a0: 5af2 c13d c952 a4bd 4d0f 7abd 1f59 2e3e
000001b0: 9c1b 2a3e 68dd 3c3d 4ea0 f5bd 0087 bfbc
000001c0: 77dc d43d 85da b13e ccd7 993e 9e80 5a3d
000001d0: e05f c53d 2bef 98be aeeb 38be e459 563e
000001e0: bdfc 613e 8de1 2b3e df84 9abd 23fe 6a3e
000001f0: e227 573e d6f9 db3c e50c cb3e 70bc 9abe
00000200: 85c3 3fbd d6dc 72be 32ef c9be 9aa1 783e
00000210: 24ff 46be a530 113e 3248 49be 0d49 ab3e
00000220: acf8 9cbe 73e7 1ebd 0693 473d 591e 02be
00000230: a0cc 9dbd 34a4 2aba c0c8 eb3c 3a83 e5bb
00000240: 971b a1be 75b6 2d3c cdbf 0d3e 06ce 5d3e
00000250: 87c1 9dbe 39b9 de3e 0bba 56bd 81b6 d4bb
00000260: 1830 28bd 928d 3ebe 2441 9b3e 0f69 a33e
00000270: 6ee7 f33d 4306 623e 0503 8bbd dd68 97bd
00000280: 8bc8 133e 705d 06bd 47e7 8c3e dcbb d9be
00000290: 8f4e 8d3d 9dcb 023e 8b0b 17be 88ec 0a3e
000002a0: d382 b43d 4845 0fbe 36b4 bdbd e4a1 15be
000002b0: 273a 683e 145c e1bd 5985 103d 260d 62bd
000002c0: ba85 1b3e 162b 16be be8d 65be 560a b43c
000002d0: ddb3 c73c 0f88 86bd 3c10 cabd d5d8 0f3e
000002e0: 38b1 1fbe 68b0 35be a77e 783e bf02 ae3d
000002f0: 2e8a ae3d c252 bfbd b1b7 9a3e e1eb 51be
00000300: 2f4e 3b3e f0a1 babe 06a2 18be 43a6 073e
00000310: 0396 9ebe f6d0 bcbd 4310 68bd 4a95 a33e
00000320: 0610 acbe 90ea 96be 8b28 833e 408f 2d3e
00000330: e34d bc3d 7b17 1a3f 763e 01bd 19af c1be
00000340: 2a05 c2be 5b59 27bd 39a4 e4be 8dd1 833e
00000350: 2b6c 1bbd a776 d7be ca9b debd 2a9e 3f3c
00000360: 8ebb 20bd 864e b3be 0c56 b63e fabd a23e
00000370: a4f5 fb3c 4727 c73d 2dfd 03be 72ae 9f3d
00000380: 8909 4f3d 0872 2cbe 372d 2abe 28f5 0d3e
00000390: e9dd d5bc fcc2 44be 5b3c 1f3e 9444 553e
000003a0: 2fc3 1e3e 76cf c1be bfec 123e ae88 553e
000003b0: a5d3 0abe 01c8 4abd 0052 50be e954 66be
000003c0: 7e2a 00bf c9ba 01bf a725 373e b976 f8be
000003d0: 722c d73e cd77 0fbd 3e79 85bd 8b91 113f
000003e0: ed76 92bc 5373 8a3e 87ad 2cbd df23 95bd
000003f0: df34 41be fea8 853c 4746 773e 7986 8bbe

StatefulPartitionedCall/sequential/dense_1/BiasAdd/ReadVariableOp:0 f4 [50]
0.15229298 0.096490994 0.036553413 0.039638028 0.07621747 0.09964855 -0.04224558 -0.016181188
0.13288593 -0.06988901 0.21047808 0.07365293 0.060496308 0.047182143 -0.18951067 -0.043751813
-0.02375483 -0.03306904 0.24834052 -0.029768767 0.012235125 0.033288833 0.029194277 -0.102879144
0.04535727 0.17365381 0.07065905 0.1813388 0.21758825 -0.07088521 0.018616984 -0.16387045
0.050729338 0.104484744 0.07561137 0.091252096 0.13770503 -0.0097390795 0.19966516 0.18807398
0.2959546 -0.0022839033 0.05978439 -0.11644631 0.04227772 0.04877641 -0.056152843 -0.13377343
0.09088455 -0.08953763
00000000: b1f2 1b3e 129d c53d 08b9 153d 7c5b 223d
00000010: e817 9c3d 8a14 cc3d b409 2dbd 698e 84bc
00000020: 4013 083e f821 8fbd 9187 573e 59d7 963d
00000030: faca 773d 1042 413d 160f 42be 1a35 33bd
00000040: 7d99 c2bc 6773 07bd fa4c 7e3e a1dd f3bc
00000050: d575 483c df59 083d d628 ef3c 4db2 d2bd
00000060: 8bc8 393d 4ed2 313e b1b5 903d e1b0 393e
00000070: 74cf 5e3e 442c 91bd a582 983c a8cd 27be
00000080: 91c9 4f3d 19fc d53d 22da 9a3d 61e2 ba3d
00000090: 8c02 0d3e a990 1fbc 0675 4c3e 7796 403e
000000a0: 5d87 973e 8aad 15bb 7ae0 743d 677b eebd
000000b0: 672b 2d3d c6c9 473d 8600 66bd e7fb 08be
000000c0: ae21 ba3d 815f b7bd

StatefulPartitionedCall/sequential/dense/MatMul/ReadVariableOp:0 f4 [784, 100]
0.0101080835 0.057669565 0.032084905 0.049067274 0.057607993 -0.06970924 -0.060373195 0.05822338
0.051800996 -0.027964763 -0.006433107 0.034007087 -0.054967076 0.01538986 0.05033849 0.07176335
-0.029518574 -0.0613773 0.032303073 0.027477987 0.01948706 0.04603879 -0.05700462 0.020167053
0.059747636 0.04971604 0.0640322 -0.033974268 0.082057804 0.081566185 0.0755301 0.054935902
0.06887978 0.032318234 0.013899356 0.030515224 -0.05555866 -0.030880839 0.06066455 -0.028732456
0.039975382 -0.067933485 0.04563427 0.015452601 -0.042264562 -0.017213248 -0.020610478 0.03037148
-0.0076661035 0.028350376 0.0037260652 -0.07750064 -0.039086673 0.008170165 0.032072335 -0.061831564
-0.07885627 -0.03326375 0.03844253 -0.05510632 -0.0043687746 -0.03959242 0.0093271285 -0.0058822036
0.015947208 0.05592905 -0.01672598 -0.054801397 0.006495841 -0.0116846785 -0.048040442 -0.040490717
-0.022868954 -0.07043867 0.012876466 -0.0012264997 0.0128316805 0.066385284 -0.06832411 0.014342032
-0.018318117 0.03910698 -0.0785482 -0.02634018 0.080026194 -0.07252105 -0.03539253 -0.036800932
-0.07294731 0.017649278 0.035868973 -0.06450031 -0.075031266 -0.022620894 0.017726943 0.021073207
-0.028062422 -0.07714011 -0.057076983 0.055501163 -0.058350343 0.0511508 -0.049934164 0.00792709
-0.0021971315 -0.016270734 0.075444415 -0.020118773 -0.018719718 0.032195434 -0.057809927 0.019672565
-0.044182755 -0.018611982 0.008656368 0.06559062 -0.058686264 -0.042788967 -0.060186278 -0.06363623
-0.07735004 0.07753961 -0.062933296 0.025597565 -0.080386505 0.03519562 0.023410492 0.041528784
-0.050640553 -0.06938636 0.07823038 -0.07924361 0.004703082 -0.018410668 0.035046257 -0.035437647
0.01228302 -0.07674424 -0.047010053 -0.06553225 0.00042260438 -0.021388229 0.078266904 0.04861024
0.04817541 -0.026834965 -0.07684108 0.023212649 0.0678415 -0.047599807 -0.046958275 0.03527829
-0.05854814 -0.0064755157 0.06422539 0.010708265 0.007382378 -0.031119317 -0.008088216 0.047666714
-0.021951545 0.039461054 0.017658472 -0.053232692 0.041627765 -0.035888005 0.06998862 0.045976266
-0.07336414 0.02787523 -0.06597204 -0.037632227 -0.07005981 0.025506817 0.057702973 0.06428161
-0.042456977 -0.079819635 0.00897117 -0.040219966 0.067454755 0.0011463985 -0.042782526 0.013036318
-0.021103788 0.019461013 0.0023409724 -0.044436652 0.0010014921 0.055833668 0.029917233 0.057046264
0.001580134 -0.06459118 -0.05450189 0.04671274 -0.04154658 -0.07835199 -0.025732782 0.08173667
-0.06840213 0.05449164 -0.07754006 -0.014643848 0.03563568 0.011593148 0.025746942 -0.05896037
-0.019528233 0.08235228 -0.026355185 -0.044798184 -0.06312889 0.050849095 -0.06481794 -0.04148174
-0.048811555 -0.059903078 0.04466994 0.008457549 -0.06439711 -0.041588556 0.035839446 -0.028812341
0.028375044 -0.013697632 -0.024801861 0.0077366605 0.032661498 0.04094068 0.012557775 -0.04917684
0.055581108 -0.0067195073 -0.011467829 -0.077468015 0.032243066 0.025707603 -0.074745275 0.0568386
0.073153794 -0.015430853 -0.06725316 -0.03982204 0.077959016 -0.08102209 -0.0680359 -0.056457587
0.031698875 -0.071185306 -0.040821508 0.014358744 -0.07363231 -0.06317493 -0.027124155 0.07800159
00000000: 609c 253c ec36 6c3d 766b 033d c4fa 483d
00000010: 5cf6 6b3d b8c3 8ebd e249 77bd a47b 6e3d
00000020: 482d 543d 5c16 e5bc d0cc d2bb 044b 0b3d
00000030: 2825 61bd c025 7c3c bc2f 4e3d aaf8 923d
00000040: f0d0 f1bc c466 7bbd 3a50 043d 8419 e13c
00000050: 54a3 9f3c 2c93 3c3d ad7d 69bd 6035 a53c
00000060: f0b9 743d 0ca3 4b3d 5023 833d 9a28 0bbd
00000070: ec0d a83d 2c0c a73d 86af 9a3d 7804 613d
00000080: d810 8d3d 2060 043d 20ba 633c 10fb f93c
00000090: 7a91 63bd d0f9 fcbc 647b 783d 5460 ebbc
000000a0: 3abd 233d b620 8bbd 00eb 3a3d e82c 7d3c
000000b0: 9b1d 2dbd cc02 8dbc 4ed7 a8bc 9ccd f83c
000000c0: f033 fbbb 0c3f e83c 0031 743b a8b8 9ebd
000000d0: 5919 20bd 28dc 053c 485e 033d 1843 7dbd
000000e0: 657f a1bd 923f 08bd ea75 1d3d 2ab7 61bd
000000f0: f027 8fbb a92b 22bd d0d0 183c 80bf c0bb
00000100: b8a3 823c dc15 653d ec04 89bc 6e77 60bd
00000110: 10db d43b 1871 3fbc 0ec6 44bd 98d9 25bd
00000120: ac57 bbbc 2642 90bd d0f7 523c 80c2 a0ba
00000130: f83b 523c 02f5 873d 83ed 8bbd d8fa 6a3c
00000140: e00f 96bc a42e 203d e1dd a0bd 5cc7 d7bc
00000150: c6e4 a33d eb85 94bd c2f7 10bd 93bc 16bd
00000160: 6665 95bd 3895 903c 58eb 123d bd18 84bd
00000170: fea9 99bd 744f b9bc 1838 913c b8a1 ac3c
00000180: 2ae3 e5bc a2fb 9dbd 8ec9 69bd 3055 633d
00000190: c500 6fbd 8083 513d c487 4cbd a0e0 013c
000001a0: c0fd 0fbb 344a 85bc 9a82 9a3d 20d0 a4bc
000001b0: 185a 99bc 5cdf 033d 1aca 6cbd 5c28 a13c
000001c0: faf8 34bd 2878 98bc 70d3 0d3c 6054 863d
000001d0: 0261 70bd 7c43 2fbd e385 76bd b653 82bd
000001e0: b369 9ebd 16cd 9e3d 2ce3 80bd fcb1 d13c
000001f0: aea1 a4bd 4829 103d 5cc7 bf3c 161a 2a3d
00000200: 786c 4fbd 701a 8ebd 4037 a03d 794a a2bd
00000210: 501c 9a3b f8d1 96bc aa8c 0f3d 1127 11bd
00000220: b83e 493c 162c 9dbd 9d8d 40bd c635 86bd
00000230: 0091 dd39 5e36 afbc 664a a03d 881b 473d
00000240: 9453 453d 00d5 dbbc db5e 9dbd 7428 be3c
00000250: 7cf0 8a3d 04f8 42bd 5257 40bd f87f 103d
00000260: 2dd0 6fbd 9030 d4bb 9a88 833d b871 2f3c
00000270: e0e7 f13b f0ed febc 7084 04bc 2c3e 433d
00000280: bad3 b3bc eaa1 213d 80a8 903c 860a 5abd
00000290: e081 2a3d 4dff 12bd 3256 8f3d 9c51 3c3d
000002a0: f03f 96bd 985a e43c 591c 87bd 4024 1abd
000002b0: 857b 8fbd acf3 d03c f459 6c3d 14a6 833d
000002c0: 5ee7 2dbd 7a78 a3bd d0fb 123c b1bd 24bd
000002d0: b825 8a3d c042 963a bb3c 2fbd 4896 553c
000002e0: dae1 acbc b46c 9f3c 006b 193b 3503 36bd
000002f0: 8044 833a d8b1 643d fc14 f53c 58a9 693d
00000300: 801c cf3a 6148 84bd 603d 5fbd dc55 3f3d
00000310: bf2c 2abd 0277 a0bd 8ecd d2bc 8e65 a73d
00000320: 6a16 8cbd a032 5f3d 53cd 9ebd c0ec 6fbc
00000330: b8f6 113d 30f1 3d3c 40eb d23c 6e80 71bd
00000340: acf9 9fbc 50a8 a83d d4e6 d7bc 4d7e 37bd
00000350: b849 81bd 2447 503d 45bf 84bd c2e8 29bd
00000360: a0ee 47bd ee5c 75bd d4f7 363d 8891 0a3c
00000370: a2e2 83bd c358 2abd 62cc 123d dc07 ecbc
00000380: c872 e83c 086c 60bc 462d cbbc d083 fd3b
00000390: 10c8 053d 6ab1 273d 20bf 4d3c a76d 49bd
000003a0: 04a9 633d 502f dcbb 90e3 3bbc 8da7 9ebd
000003b0: 4e11 043d c098 d23c 0d14 99bd 98cf 683d
000003c0: a8d1 953d b0d1 7cbc 06bc 89bd 6f1c 23bd
000003d0: faa8 9f3d e9ee a5bd 6856 8bbd 1240 67bd
000003e0: aed6 013d 9ac9 91bd 7434 27bd f040 6b3c
000003f0: 89cc 96bd dc61 81bd 7a33 debc 4cbf 9f3d

StatefulPartitionedCall/sequential/dense/BiasAdd/ReadVariableOp:0 f4 [100]
-0.06522304 0.030799447 0.039093282 -0.010148529 0.2152973 -0.022756323 -0.14977646 -0.051047936
-0.1724362 0.18976638 -0.06365055 -0.013095231 -0.043644343 0.11854998 -0.07263236 0.21617903
-0.14218234 0.090126134 0.22100413 0.099509515 -0.031701516 -0.014277311 0.068667755 -0.047449455
0.20541799 0.094698444 -0.008645371 -0.020774761 -0.06911347 -0.08626382 -0.02675956 0.11594749
-0.08247141 -0.12720299 0.0047385083 0.011975283 -0.01471248 0.0470379 0.20686956 -0.091428325
-0.010880552 -0.06926599 -0.08779902 0.15250905 0.1541242 0.06019961 -0.051578224 -0.05686493
-0.10089127 0.091188155 -0.0016683319 0.10973195 0.14168091 -0.11518252 -0.11026326 0.078861326
-0.029126229 -0.057371344 -0.10377709 0.16619718 -0.15761212 0.09217526 0.029834293 0.061915625
0.10246009 -0.025505506 0.11322267 0.108559504 -0.22528526 -0.102285326 -0.036598865 0.09780794
0.11102137 0.03303299 -0.063107915 0.07743035 0.028917879 0.0040812595 -0.045345075 -0.0073913713
-0.05094047 0.029916286 0.031656 -0.045066692 0.06811892 -0.018045219 0.11971537 0.26718596
0.1302928 -0.0100176055 -0.13657898 0.08498455 0.17440256 0.046050366 0.17336267 0.019786593
-0.14225765 0.13837616 0.10536869 -0.020111132
00000000: a893 85bd 1f4f fc3c 4720 203d 0446 26bc
00000010: e576 5c3e 786b babc 005f 19be a417 51bd
00000020: 1d93 30be 1e52 423e 385b 82bd 618d 56bc
00000030: 69c4 32bd 55ca f23d 46c0 94bd 095e 5d3e
00000040: 3f98 11be 0d94 b83d e84e 623e a5cb cb3d
00000050: 73d9 01bd 62eb 69bc aea1 8c3d 5c5a 42bd
00000060: 1859 523e 42f1 c13d 50a5 0dbc d52f aabc
00000070: 5d8b 8dbd 16ab b0bd dd36 dbbc e175 ed3d
00000080: c5e6 a8bd 8041 02be 7d45 9b3b fa33 443c
00000090: 9d0c 71bc d0aa 403d 9dd5 533e c63e bbbd
000000a0: 5844 32bc 54db 8dbd f9cf b3bd 552b 1c3e
000000b0: bcd2 1d3e de93 763d b043 53bd 33eb 68bd
000000c0: 15a0 cebd dbc0 ba3d eeab daba 25bb e03d
000000d0: cd14 113e d0e4 ebbd b4d1 e1bd 0c82 a13d
000000e0: 219a eebc 37fe 6abd 1589 d4bd 982f 2a3e
000000f0: 1265 21be 62c6 bc3d 0c67 f43c 3d9b 7d3d
00000100: 98d6 d13d ecf0 d0bc 4ae1 e73d 7254 de3d
00000110: 2eb1 66be f87a d1bd b1e8 15bd 874f c83d
00000120: 2c5f e33d 9a4d 073d b93e 81bd ce93 9e3d
00000130: 30e5 ec3c 16bc 853b c2bb 39bd 5133 f2bb
00000140: f4a6 50bd 0013 f53c b9a9 013d da97 38bd
00000150: ef81 8b3d 91d3 93bc 552d f53d 99cc 883e
00000160: 7a6b 053e e220 24bc 5cdb 0bbe 610c ae3d
00000170: 9696 323e 4f9f 3c3d fc85 313e 7e17 a23c
00000180: fdab 11be 7bb2 0d3e 8acb d73d 1ac0 a4bc
